weights.npz (npz, 635706 bytes, 2 tensors)

arr_0 f8 [784, 100]
00000000: 9a78 33e1 e41d 453d 30b1 c13d 1217 213d
00000010: c1f5 2b06 2ea0 25bd 552e ecc7 e6e9 4f3d
00000020: 01de 31a5 9076 3f3d 1788 7508 e19d 6e3d
00000030: 626e 7ad5 2236 6f3d 204c b0c6 8b6b 54bd
00000040: bd13 a032 f5eb 56bd df83 730e a3d6 523d
00000050: 6c1a 5e49 31b9 60bd 737f 3256 a098 4fbd
00000060: 4ef0 a3da ad06 493d 134c 4433 163b 49bd
00000070: 96db 89fb 0f80 193d ec8a 7d7b b866 363d
00000080: afb8 c33b a77c 403d c2da 6423 31cc 5a3d
00000090: 649d 9af5 e56e 643d c373 0e1a 3355 44bd
000000a0: 7ce2 4b6e 0ccc 5a3d c84b 37e9 efb0 5dbd
000000b0: 1b35 c7a6 a8dc 37bd d01e 1919 4b19 53bd
000000c0: 9815 7d42 9cad 563d 476d f99c 63c4 4abd
000000d0: c341 85f4 25e7 70bd 78e8 c7ec 03ae 5e3d
000000e0: aee5 e9cc 16cd 573d 061a ea6e df33 3e3d
000000f0: 2278 0767 a607 3bbd 82e5 8bd7 ca9f 5cbd
00000100: f700 d5db 3d1d 61bd 3aa3 c876 f3d3 653d
00000110: 3b92 c0a5 82ba 2b3d 580c c51a 11ae 62bd
00000120: 03ff 5d7d fdc8 653d fa4b a062 3972 2abd
00000130: bfd6 964a 8a34 f0bc 4cc6 337f 84ce 4bbd
00000140: fed5 4e7a 9b61 633d 11fe 9e8f 268a 46bd
00000150: b3fb 3a02 aaba 5ebd cd0c a726 0c13 2c3d
00000160: dbf6 2de7 a973 19bd 4d39 938d 106c 533d
00000170: 0005 7391 ce86 52bd 521b 2d3f 38d7 1e3d
00000180: cb07 2e6d 6ee1 563d 0736 9a3b e946 533d
00000190: e9da f15a be24 613d f7fe e9c7 1a09 48bd
000001a0: afa9 2c02 f2f6 5f3d 5d8e acaf 0dd4 343d
000001b0: e7fd 44f4 ed14 673d 931d 1873 69ad 603d
000001c0: 472e d71d 78d2 553d 1ce6 e8e7 2e67 65bd
000001d0: d6b5 4f88 ce90 593d e90f ee13 a4e5 62bd
000001e0: 61f6 a123 5df4 43bd bce3 1632 5ad8 413d
000001f0: f3e4 a065 2a7c 50bd d073 5b3f c1bc 38bd
00000200: 6291 d6c2 af28 603d 311e 73c4 b4c3 08bd
00000210: 34e1 90a5 8520 6dbd 86b9 6a1e e054 583d
00000220: 4e74 d14d 1037 5e3d ee49 6305 e349 2bbd
00000230: f490 f083 53b6 5dbd bef2 9052 e4f7 1d3d
00000240: b9d8 2e9a c59d 51bd 9720 c712 3163 5d3d
00000250: 7d2f 27e4 eb16 48bd 3724 456e e60d 49bd
00000260: bf9d e8a1 9d64 66bd 44b5 ebdc c516 4c3d
00000270: 4777 07a1 f218 69bd 2dbf eb2c 393e 573d
00000280: 8048 23de cba6 63bd 338c 68af c148 533d
00000290: bef0 a73a 978f 64bd 6038 bddd 5d0b 733d
000002a0: 6bff 807f f364 553d 5a78 6411 aab3 653d
000002b0: b6b2 8cdb 2882 33bd e8cf f3dc f720 f13c
000002c0: 431c 5d87 71c3 62bd a788 6bf1 285b 71bd
000002d0: 60f5 0d3e 47a7 5abd ea26 d260 0b90 48bd
000002e0: 9110 1f2c a807 5fbd 6317 24ef a64c 673d
000002f0: 923d 7346 607e 4abd f6c1 e16a 0dd7 53bd
00000300: 59c6 8c99 4688 353d cd7a fa5d a747 483d
00000310: d345 3dcc 5091 5a3d 5806 f562 fe3a 533d
00000320: 7dcd 6e25 f417 45bd 678f 4b22 f32a 54bd
00000330: 4e57 0886 af4e 693d ea90 a819 855f 573d
00000340: 3146 8008 2d5d 6cbd a1c4 7826 040c 66bd
00000350: d7e3 ae95 e7ae 5cbd 11c6 a449 e764 413d
00000360: a8be 1e69 a01f 64bd 4df9 5eb1 5d94 5a3d
00000370: d9e5 95a0 6c3e 533d 502b 6794 1ddc 703d
00000380: 7c62 05b3 55f8 46bd 3c8b f618 84fb 6ebd
00000390: 492d 78ca 61c8 5c3d 4eb0 c903 6134 403d
000003a0: eaa2 979d 2fa4 51bd 5c3b 7be4 84e7 52bd
000003b0: 5e8e 0c28 8cf8 72bd 36c5 e207 0be3 31bd
000003c0: f6aa 2463 69e1 61bd 40a8 6c35 6c4c 65bd
000003d0: 6b8c d1ed abdf 523d 9f5f c2da 0325 46bd
000003e0: 52b0 dab4 7bcb 60bd c926 dc68 eb37 5d3d
000003f0: b185 28c0 7ea2 4f3d afb9 9ea2 c325 343d
00000400: a252 93ae 7491 0cbd 7ba4 4b2a 4e93 523d
00000410: 9a1f c8fb 0648 583d 3cba 3ae8 9a96 523d
00000420: 9cb0 62b2 de54 2a3d 611d d94e 6835 683d
00000430: d4dd 3f46 26aa 6c3d b375 11b8 3373 42bd
00000440: 33ee ccd1 44a7 5bbd 3017 7166 e137 5c3d
00000450: 29df a238 508c 5c3d ce29 9e81 f770 233d
00000460: 8f27 ee7b f715 5f3d 2341 a6db c73b 503d
00000470: 5ff4 55c5 bb29 613d 5c31 e7e3 6f2f 5dbd
00000480: ff24 7744 b650 68bd 1aee 47d8 06cf 56bd
00000490: 0149 da33 2dde 36bd c57e 9f19 5ea2 22bd
000004a0: e73d 255b 4bdf 503d 4909 05e3 453d 3b3d
000004b0: 91df d761 8f36 4f3d 4502 7577 6939 433d
000004c0: c183 241e d5db 54bd de15 857f c998 603d
000004d0: 72d5 1fcb 9441 313d b057 48be fe44 57bd
000004e0: b94e 7af4 e631 00bd 1946 8a0d b3d4 49bd
000004f0: 665a 3a8e c4b2 46bd e518 9802 8278 4abd
00000500: 031f 010a 940c 02bd 84a2 97cf f6a8 493d
00000510: ef91 8806 fdea 163d b5fb 3f9b 9659 56bd
00000520: e640 821a 7e44 60bd 085c 04f2 a8b6 31bd
00000530: 1fd8 fcd9 9f5e 353d 7214 f47f ae6c 4e3d
00000540: 7ef9 b3a6 9698 53bd 53bd 5ff7 1a5e 373d
00000550: e506 af4c 424a 593d a97d b0e7 5647 4a3d
00000560: ca39 e1d1 e449 62bd 5b13 3787 771c 413d
00000570: b9e3 9d80 b27b 5b3d 31ed 329b ed0d 5fbd
00000580: 63e1 aecf 7ae5 61bd d3e6 1190 f6e4 20bd
00000590: 80a2 59da f13c 5fbd f4f2 2e30 7e11 56bd
000005a0: 9082 3c10 abb0 6ebd 476b 0f37 efbe 57bd
000005b0: c988 37c0 3516 283d 27e4 5cff 1b72 643d
000005c0: 7eda 86da 9e89 603d 8e40 bd85 3476 63bd
000005d0: 6947 a9b2 f415 1b3d 9265 5a4d 4735 40bd
000005e0: 3898 3d21 fc27 52bd a8b6 ce44 7d56 5f3d
000005f0: fc60 4ed5 3e43 453d 29da c3b3 7864 63bd
00000600: ecfa 025a e8ba 50bd 21df a135 0eb2 653d
00000610: cb00 7a3c 2754 613d 9f53 ad07 c373 5ebd
00000620: 114e c059 89c8 673d 35e2 40ce 85e1 4bbd
00000630: 0781 f0f2 3ef7 3c3d acf5 0ccb 310b 623d
00000640: e7ff 4e35 f458 4b3d 3263 9d70 0e9c 33bd
00000650: eb2f fc46 d663 193d 0688 62a6 4db5 49bd
00000660: 077e 92e5 82e1 52bd 2003 617e c4f0 323d
00000670: 7faf a67b a8d8 693d 62dc 5b09 fa42 2e3d
00000680: ce75 17c4 9e86 4abd d362 4b4e a6ac 50bd
00000690: 75fa dd51 e0e2 59bd b8b8 5f45 24e6 423d
000006a0: e359 4ea0 4cdd 52bd 93c8 e99e a647 583d
000006b0: acb6 4f24 1231 5a3d 6119 d4a4 d65b 47bd
000006c0: d7f3 170e 22f3 3f3d c373 88c6 77ff 51bd
000006d0: d29d cf9f 4656 13bd 9ee8 e20a ad1e 663d
000006e0: 44a3 fd80 c828 59bd 2413 5b5b 3baf 633d
000006f0: b58e e220 e547 4dbd 2c89 8912 0895 093d
00000700: e0b2 4c34 b539 55bd 5919 f18c 9428 5b3d
00000710: 7157 35b4 0399 3abd 720b f108 a946 20bd
00000720: e4f6 231a 4710 5c3d a2f8 e54e 6ee3 44bd
00000730: 2bc9 1c21 9685 55bd 0247 1540 23ec 563d
00000740: 5108 3f14 5e65 723d ea6e 70f8 12cc 54bd
00000750: 5d12 f32d 779c 5fbd 5913 caf3 0bf7 fd3c
00000760: 3a7d 3757 748b 3abd 9063 79f5 e296 663d
00000770: fec5 7d31 62a6 49bd 7364 09bd 275b 56bd
00000780: d8ed 7a25 53ae 553d 5146 2240 702e 643d
00000790: 7630 e299 97da 40bd 6789 cfe8 51c3 64bd
000007a0: 5351 f727 aaa7 343d 7adb 6365 fc08 723d
000007b0: 9e40 2f04 2cf9 32bd e930 300c 7b72 453d
000007c0: f6bc 4634 9580 4a3d e775 a3b1 0325 3c3d
000007d0: 2d72 c30d 13bd 5d3d 44fa 2621 2896 5ebd
000007e0: ed83 13f8 7cae 4cbd f2be cc5a bf1f 2c3d
000007f0: f301 a5cc 6b6f 4cbd 663c 6b10 23de 4d3d
1.500437013883653e-13 3.0358155259307156e-14 -3.8414964137984905e-14 2.2676031852454668e-13 1.1177954424113779e-13 8.701793769245449e-13 8.87083303471263e-13 -2.9018709660202236e-13
-3.2573709306153953e-13 2.67710128468617e-13 -4.753078514941433e-13 -2.2450447931992484e-13 1.7782106668910788e-13 -1.7927566985845496e-13 2.264876630659821e-14 7.958523610010455e-14
1.171466605855004e-13 3.8081715260757183e-13 5.807463708672557e-13 -1.4447331154576563e-13 3.808091929563483e-13 -4.219367717630402e-13 -8.477467054502743e-14 -2.714103026611468e-13
3.2227611632327715e-13 -1.9019200420100894e-13 -9.608199263627127e-13 4.3598543285281837e-13 3.38234388510235e-13 1.0730128988348718e-13 -9.602943453757668e-14 -4.067741894141569e-13
-4.864155340312613e-13 6.203871895367244e-13 4.925581013669421e-14 -5.309160683001917e-13 6.191702921710939e-13 -4.697786715999853e-14 -3.5982850385428134e-15 -1.9757855257296945e-13
5.508490702489657e-13 -1.6015385209632094e-13 -4.366875803481635e-13 4.987015984052976e-14 -2.2605749507610538e-14 2.7600503328753423e-13 -2.632786714684761e-13 2.7392045971714605e-14
3.25152757688165e-13 2.739425944814494e-13 4.87248416637021e-13 -1.7078296035550526e-13 4.5424471660114263e-13 7.399710652310531e-14 6.560229591231218e-13 4.739999406808847e-13
3.101113369058748e-13 -6.08311537382514e-13 3.633097582470777e-13 -5.370860344363184e-13 -1.4178557841585753e-13 1.2679724844543657e-13 -2.3426625157683927e-13 -8.788462836646219e-14
4.592644672057135e-13 -1.0997637041640744e-14 -8.27840247195699e-13 3.4577204788971193e-13 4.293822901352944e-13 -4.847432733658132e-14 -4.2223592577829325e-13 2.66172219156462e-14
-2.5034262906541366e-13 4.17621031799493e-13 -1.7116645462360425e-13 -1.7802148977419245e-13 -6.364481998955057e-13 1.9958404102274034e-13 -7.133124945835115e-13 3.3030374778022075e-13
-5.585305949189728e-13 2.740450412580315e-13 -5.843759630385962e-13 1.0825488649325946e-12 3.0403186436795263e-13 6.168026453909792e-13 -6.930788720800696e-14 3.8033536521735965e-15
-5.332893539807077e-13 -9.865796921143928e-13 -3.7876803308394897e-13 -1.7452829309871314e-13 -4.409615407951106e-13 6.622094080312777e-13 -1.8824875200285374e-13 -2.819440465616688e-13
7.64981936197334e-14 1.7251904842883014e-13 3.77548859756e-13 2.732810476505611e-13 -1.4987882313520635e-13 -2.866012839304635e-13 7.192785965642766e-13 3.321520793279657e-13
-8.061524682208054e-13 -6.266116749955944e-13 -4.076130892668354e-13 1.2359289890026213e-13 -5.719454470038278e-13 3.777181893769602e-13 2.7347148575334366e-13 9.583701711557744e-13
-1.6321207615672116e-13 -8.805751689939909e-13 4.090273672923412e-13 1.151406460189172e-13 -2.5069868394667713e-13 -2.686472772766623e-13 -1.0783701678507209e-12 -6.354698835306496e-14
-5.081947828173493e-13 -6.053405210640123e-13 2.682116527526519e-13 -1.5734677607380732e-13 -4.773385274122629e-13 4.1521894638053085e-13 2.247783936649376e-13 7.157835713220976e-14
-1.2686823447367912e-14 2.6397247348418557e-13 3.4505883036352833e-13 2.64155647691194e-13 4.677418112169227e-14 6.880504447444696e-13 8.146982543502074e-13 -1.3109519101961094e-13
-3.9297836242356397e-13 4.010059212126831e-13 4.0569288840553433e-13 3.453464473807855e-14 4.4175589490747905e-13 2.3069217066264644e-13 4.878024073401141e-13 -4.1474807317838827e-13
-6.910818564297675e-13 -3.2413109627903473e-13 -8.124302026206526e-14 -3.3101074509686446e-14 2.3976900240361084e-13 9.677360295467094e-14 2.2178259469817193e-13 1.3659662231935627e-13
-2.9642024896803873e-13 4.717101267424884e-13 6.13062548564472e-14 -3.306796553793552e-13 -7.191993819819336e-15 -1.8353927892389487e-13 -1.612812049252611e-13 -1.8808587609840056e-13
-8.015425610836117e-15 1.8232537993566267e-13 2.0355204955409767e-14 -3.1761195376101017e-13 -4.623515561510671e-13 -6.293104846797903e-14 7.592016487670157e-14 2.1617934220270764e-13
-2.78476601844119e-13 8.30183885126487e-14 3.593935694934595e-13 1.8672117942930412e-13 -5.197946326153573e-13 1.215823804681461e-13 3.905596554518692e-13 -4.4130966377885285e-13
-5.086464284757032e-13 -3.0010460337852644e-14 -4.4391960873961045e-13 -3.136098560130449e-13 -8.72265395079597e-13 -3.3744864868525934e-13 4.27866767311297e-14 5.811028730737754e-13
4.700262980998804e-13 -5.531358888365704e-13 2.4056991992768092e-14 -1.1516561382498637e-13 -2.580149917170351e-13 4.4533761851366044e-13 1.510804104680134e-13 -5.511670556620432e-13
-2.3774913279587513e-13 6.166240302656466e-13 4.925119497289127e-13 -4.327517142351021e-13 6.759633437152795e-13 -1.9810605040937213e-13 1.0290720906611247e-13 5.128336094180769e-13
1.9431550641947805e-13 -6.966727758385971e-14 2.2550839739478168e-14 -1.8266786194992307e-13 -2.6831377761240097e-13 6.72901672353593e-14 7.345966209511319e-13 5.3755449434148257e-14
-1.8847757187248603e-13 -2.3695765528513627e-13 -3.678655296597752e-13 1.3428540733722834e-13 -2.680799649532795e-13 3.4503793501912427e-13 3.7220620289034083e-13 -1.6597385833992673e-13
1.1350827260823603e-13 -2.5576584589811596e-13 -1.717471954939531e-14 6.286833217753141e-13 -3.57535291275634e-13 5.594671240425657e-13 -2.0805288139622364e-13 1.1360758744957638e-14
-3.016313770575558e-13 3.859457351263523e-13 -9.449405797434025e-14 -2.8912013704582967e-14 3.988075282580584e-13 -1.4842102245540556e-13 -3.0584348624550546e-13 3.257470791207379e-13
1.0456896451922071e-12 -2.95545482719219e-13 -4.49222078695783e-13 6.653572388084007e-15 -9.430587499556581e-14 6.420293805640868e-13 -1.8225375563389166e-13 -3.1769893539373774e-13
3.0810491883650145e-13 5.735898954257112e-13 -1.1975398983084694e-13 -5.901190601353096e-13 7.338108832152878e-14 1.025176815014829e-12 -6.740680151345351e-14 1.523914509784474e-13
1.8831000172867963e-13 9.998966140204835e-14 4.2261052594992616e-13 -4.34661015839182e-13 -2.0379498534125718e-13 4.9958283893403323e-14 -2.0204452253975127e-13 2.1222293281837292e-13

arr_1 f8 [100, 10]
00000000: 2712 2aa6 21b4 73bf c0cc b568 8945 80bf
00000010: 5fa0 3f8d 02c2 7e3f 4b04 49b0 9f65 8abf
00000020: c77d a165 a9e5 b23f 0ded 8b17 5094 81bf
00000030: 8cdc 62ae ce48 9bbf bb9a dfb1 5eae b7bf
00000040: 4d5f 0622 2ab3 bbbf 008a 12aa d112 c73f
00000050: 766e 00e6 d538 713f cbbd f989 cd56 713f
00000060: b675 31e7 f39a cc3f 89a4 f63b 45fa c03f
00000070: c1bb d2b6 6d0c 95bf 0b52 bae3 0cb1 88bf
00000080: 6a64 750e bfc6 83bf af6d 85ea ea64 d9bf
00000090: b2d6 2253 c3cf a53f 1a2c 63ae b754 a03f
000000a0: 0284 e887 89dc 89bf bd65 71dc cf89 8cbf
000000b0: 0d74 ba8c 05c3 80bf 7fb0 5c80 d695 363f
000000c0: 1277 7f62 c811 b7bf 2ca6 b06c 61ec 91bf
000000d0: 52b9 eb94 6357 8d3f 786c a371 839a 963f
000000e0: 6dbe 03bc fd6c a9bf 54b9 57bc dbdf c33f
000000f0: 5967 6d14 e558 a5bf dc97 e95c 5053 623f
00000100: f93e 8113 f8e2 743f 2c41 b7df 84fa 953f
00000110: 5775 b2c8 4566 a0bf e82f 328e 1edb 8abf
00000120: 77b5 0384 daf5 87bf 31b4 f77b 4975 d13f
00000130: 2d74 db94 4f1a 9cbf 8cea 1795 ff78 c6bf
00000140: 6f89 448b f295 88bf 9668 21ac 3e3c 63bf
00000150: ec38 4ebe b58a a0bf 9a7e 29f9 e1e9 94bf
00000160: be32 b488 f60a c63f c67a f648 cb67 a3bf
00000170: d765 9329 e964 b03f 58ae 345e 4df7 99bf
00000180: 2246 d27f b7f6 9cbf 58f6 9cbd a7d2 b3bf
00000190: 4017 6136 18e4 6c3f b02d e312 7614 8bbf
000001a0: 25f8 a02b 11e2 a2bf 0688 04bf b2d8 b2bf
000001b0: a876 49c7 b189 93bf 8827 2e06 d485 943f
000001c0: 548e 2e23 1f23 843f 217c 1b0b 346c cf3f
000001d0: 7194 369b 994c 91bf bd4e dc34 0a7f bebf
000001e0: a868 c917 921b 763f 87d0 9980 5869 84bf
000001f0: 9652 1a74 81ee 77bf 1295 f343 86d4 773f
00000200: 1851 e932 dd71 553f cea5 85be daa3 613f
00000210: 23f9 d6b4 d53b 833f 5fa4 f460 73f8 7f3f
00000220: 1a2d 56f8 113f 78bf f369 1174 4ac0 84bf
00000230: 83b8 adf8 87b3 6fbf 1ea0 9f35 0561 8dbf
00000240: 1514 a14b 7c9e a4bf f002 bd78 f397 d13f
00000250: 7301 92b1 ad46 703f e7b3 859d 7ec4 aabf
00000260: 78f1 8179 788e 733f 5e1d 6b23 30b0 99bf
00000270: ec14 6748 94d3 b6bf f542 49fc 5806 aebf
00000280: c888 1d47 0394 73bf 0230 1f56 dd54 663f
00000290: 3c61 95b9 b4c3 5dbf 34f8 1bd4 f04a 85bf
000002a0: 4bd4 0b1e f3b4 9abf 54da deb8 ff4b 77bf
000002b0: 2a65 13e8 10d6 813f 638a 72c9 aca5 98bf
000002c0: 0e91 32a1 050b 87bf 43dc 7b33 3e98 b23f
000002d0: 1da5 4ae5 37af 933f 8a7f f324 7940 5bbf
000002e0: 7684 ce8a cee6 7b3f 555e d4bf 086f b33f
000002f0: f411 d4ef bdd9 723f c04a acb6 386c 37bf
00000300: 2df9 c2ea fc1e 6a3f facf 14f3 bb07 90bf
00000310: 867f ae3a 8996 b9bf 0827 19bd fe28 803f
00000320: 2200 4410 472f 97bf 3c81 3039 0865 7c3f
00000330: 6bd1 f4b2 24a3 b13f 95bc 42ad a748 c13f
00000340: 6ec2 66c7 5efa 11bf 6181 60b0 115c 94bf
00000350: 575b f2b8 aa22 93bf 5ee2 7cf7 170d ab3f
00000360: 19ce a629 1166 bbbf c339 325b 2a69 b8bf
00000370: 1e34 de2a ffa2 5a3f ad76 47f1 8390 d33f
00000380: 85eb 9ed3 139b 81bf e7cf 1e7b 14c0 aabf
00000390: d8a6 dd23 e5f9 44bf 1084 f9e4 b2bd 98bf
000003a0: 5544 eab3 bb10 95bf f03e 7b3f ab41 a3bf
000003b0: b00e f140 b9a6 c3bf a85d b85e 805f 84bf
000003c0: 6678 6f71 52bf 76bf bc3d 757d da12 923f
000003d0: bbf3 2612 14df c43f 556a 4dfc dc96 b2bf
000003e0: a61f 0880 0578 87bf 36e8 2df1 c1d1 16bf
000003f0: e2b0 1bcf 2a6d 9dbf fd5a 7130 e760 863f
00000400: 8a3b 08e9 eb43 b3bf 3eb6 7512 b931 613f
00000410: 1e0c 7255 6685 8c3f ff6f 1ab2 482d a1bf
00000420: b42d dabd 9dcd a53f 46db 37d9 9cf8 8f3f
00000430: 3935 ecc0 d77c b33f ebcc f221 f258 a53f
00000440: 74c7 535a 8e76 97bf 91c5 0c29 5d01 ab3f
00000450: 264b fdcb 4263 a23f 6a4b 88d0 8d3a b4bf
00000460: 288d 082f abe3 253f d88f 4af7 d256 88bf
00000470: 01aa eec1 acd1 643f f7c9 8675 fed1 77bf
00000480: d84d a8b7 af03 c13f 3ff8 6520 fb52 793f
00000490: b8e7 0c66 136b 87bf de61 62a6 4728 6cbf
000004a0: 2066 9d75 1d91 83bf 894b 95e3 0285 b9bf
000004b0: 9645 70ae 20ff b6bf 0ba6 254d 363e 8fbf
000004c0: 19ca af01 f8cc ac3f 4625 a687 c201 813f
000004d0: 309f 18bd 72fe 9b3f d86c 0871 e8d0 b43f
000004e0: a127 bde7 743f 933f aab6 bc0f d405 ad3f
000004f0: 7bcd 9b4f 1976 ac3f 0909 697c 06fd b1bf
00000500: 72a9 b99d 5999 e1bf fa28 8c6c 5451 723f
00000510: e480 e786 b414 bb3f 88d8 60d3 72f3 c33f
00000520: bace 1d9b 2c78 82bf 9f95 8470 9da2 cb3f
00000530: 84c6 9a79 b1ac c03f 9007 a3cd e5d2 a6bf
00000540: 98c1 3f95 4575 adbf cc0c 2b21 59f7 a83f
00000550: 209b 3ab2 41e0 c53f 3521 502d bf0b 82bf
00000560: 23e4 0be5 ae5a 9ebf 9dc3 831c c4ac 8ebf
00000570: aa66 f412 cb60 70bf f9cd adaf 2296 b0bf
00000580: 3da4 a42e 7115 abbf 1d29 5cb6 c342 8e3f
00000590: 0619 54d2 3650 9b3f df76 7aef db10 a3bf
000005a0: d70e f012 92c8 a8bf 5bf7 3948 16bd 9abf
000005b0: 2ec0 0248 f3d0 b2bf 3bf2 07e6 03c1 9dbf
000005c0: 28ab f5ff c802 bbbf d1a3 a413 8c49 82bf
000005d0: 683a 72c0 e553 d63f 5948 c89e 5aa2 5bbf
000005e0: 2329 229c 39c9 b1bf f865 211d 7e67 8c3f
000005f0: 962f 8101 6bda 93bf fe16 b802 adba 94bf
00000600: fdd3 755c 8b65 9cbf 9bc8 f214 a4c7 9ebf
00000610: 545c c06c c298 b73f 649e c9ce df22 8abf
00000620: 213f 6afb e5be 9fbf 50a1 5eef 9f23 bb3f
00000630: 5f62 fba9 5981 c3bf b097 544f b76c b83f
00000640: c7c5 a4c3 2593 afbf 2e65 5c40 51ac 87bf
00000650: 202b fc7c 964e abbf 5106 81a5 9588 a3bf
00000660: af4a a79e 3a8f b0bf 9c32 33ca 9b43 9dbf
00000670: 9a2b f534 9d48 d53f 9f1a 8045 6788 763f
00000680: e2c4 4d71 9132 b4bf 1523 ae50 a4d5 54bf
00000690: e0e3 f4b6 d10c a6bf 1ac2 dd25 4c53 90bf
000006a0: 1bf8 b75b 9ecd a2bf bf67 b260 386e cb3f
000006b0: d942 2431 bc78 87bf 8c6f 88b4 bc0f b43f
000006c0: b67d dfff d5b2 97bf 8183 c6df 7034 99bf
000006d0: 21db d19a 0119 c3bf e46b 4290 1892 873f
000006e0: 82ae 29d5 378c 6f3f 6a37 6861 a44b 63bf
000006f0: 8e31 4738 c6da 393f 1508 ae7f 1174 c63f
00000700: ff76 20d5 1d3a 933f 2772 9baf f948 ad3f
00000710: 372d ab88 42ac 85bf d13c 4aea 6fc6 acbf
00000720: f381 abad 2c9d bfbf 2f37 5a97 2421 b0bf
00000730: 67aa f5d8 fec4 75bf 7ba8 8e2a 56cf 68bf
00000740: d635 5104 30ff 79bf 9c65 e4d0 0ef9 78bf
00000750: 3fef 1179 f613 b8bf a3a3 a8cc 8370 73bf
00000760: 99fb b981 62ea 65bf 8a31 53e2 5996 a6bf
00000770: 845d 72a7 0976 a0bf 955c b957 4468 c93f
00000780: be51 718d fd5d b13f e4e4 95f6 e963 853f
00000790: acf3 f107 4ba9 8c3f 00f6 6e3b 07e4 b0bf
000007a0: 537e 24e7 4df9 b0bf 4403 9be3 ba9e d1bf
000007b0: fcf3 4f86 b249 ca3f ed76 f53d 29b0 983f
000007c0: 1508 259d 4b6e b43f 7baa 7662 bff2 943f
000007d0: 8af0 240c 0511 88bf eed7 9848 3f0b 85bf
000007e0: 9b7a 11fd fdee 8abf 4766 258b 4738 90bf
000007f0: dc85 992f 9d3d c23f bf2b 3d11 7e72 88bf
-0.004810458604542356 -0.007945130832672453 0.0075092410734002015 -0.01288914448480418 0.07381685954305005 -0.008583665579399847 -0.026644925492942437 -0.09250442354787485
-0.1082025845593055 0.1802618103439073 0.004204593220517352 0.004233172308530662 0.22347878254633508 0.13263764789488544 -0.020555223735467146 -0.012056446742726675
-0.009656422260990467 -0.3967845239874021 0.04260073079914885 0.031896343266986274 -0.01262767263421161 -0.01393473044861337 -0.008184474332034975 0.000344624393948896
-0.0901150932763495 -0.01750328279391604 0.014326837522699396 0.022073797045646576 -0.0496596614847221 0.15526911446017755 -0.04169383882863426 0.0022369927967700164
0.005099267051335004 0.02146346679165949 -0.03203027796665008 -0.013113249506453387 -0.01169939723373646 0.27278363329134253 -0.0274441179852724 -0.17556757717087057
-0.01200475204001769 -0.0023480629034056772 -0.03230827282014723 -0.020423441727301574 0.1722095649241932 -0.03790126100215256 0.06403977646859658 -0.025357445597519707
-0.028284899880025922 -0.0774330938265505 0.0035267327212150923 -0.013222620440862837 -0.0368810048826023 -0.07361905253904419 -0.019079950130950124 0.020041764142241486
0.009832614194073809 0.2454896024928255 -0.01689376840444762 -0.11912597456494729 0.00539738719506936 -0.009966556000314831 -0.005842691114271622 0.00581791350780249
0.0013088855881920377 0.002153327212160084 0.009391469556132187 0.007805300424743227 -0.005919523425642193 -0.010132390658488232 -0.0038697868052884345 -0.014345207880936125
-0.04027164862831271 0.2748993567548004 0.003973654261358528 -0.052280384758752345 0.004774542430933663 -0.025086166536110503 -0.08916594283717288 -0.058642178341534214
-0.004779827884563832 0.0027260134674858003 -0.0018166794673871297 -0.010396844361363212 -0.026080893238902097 -0.005687712587976696 0.008709079821005068 -0.02406949977433682
-0.011251491529329385 0.07263554341248928 0.019223092431876688 -0.001663320832271583 0.006811911397478379 0.07591299708689665 0.004602186146489096 -0.00035740265472942664
0.0031886043344392574 -0.01565450354719642 -0.09995324785859169 0.00789069189626758 -0.02264128720071324 0.006932289240495767 0.0688956200509147 0.13502975425715094
-6.858066067284296e-05 -0.0198824657346689 -0.018686931169749368 0.05283427139369644 -0.1070261694611009 -0.09535469747991158 0.0016257755155237928 0.30569552004258577
-0.008596568008092617 -0.05224670412954407 -0.0006401413772724974 -0.02416114351797566 -0.020571644645830684 -0.037610389231870545 -0.1535255019281201 -0.009947779551153627
-0.005553552668940842 0.017650045306536674 0.1630578125604226 -0.07261449012495665 -0.011459391565054333 -8.704897144964991e-05 -0.02873675240600527 0.010927015462738771
-0.07525515021573717 0.002098905056917371 0.013926314814176218 -0.033548614255067825 0.04258435194523305 0.015610909823391982 0.07612369976069013 0.04169422783288631
-0.022913192999971924 0.05274478078934942 0.03591355075936624 -0.07901846257327141 0.00016700234074660506 -0.011884353801470057 0.0025413870020731815 -0.005815500241100661
0.1329249998822053 0.006182652438267821 -0.011434699584800131 -0.0034371756947388773 -0.009554128791637473 -0.09968584114294123 -0.08983043917421293 -0.015255378941861705
0.056251287656682254 0.008304137959174295 0.027337830344691116 0.08131268272011327 0.018796755451411355 0.05668509189704925 0.05558852288040846 -0.07026711022721001
-0.5499694901057366 0.004472093373587999 0.10578468602716701 0.15586695977407694 -0.009018276675966209 0.21590011590994337 0.13027018010830116 -0.04457777152266751
-0.05753533789527693 0.04876211671719374 0.17090626909813356 -0.008811467714637014 -0.029642803888212065 -0.014977962608527845 -0.003998559244132652 -0.06479088582073435
-0.052897965377561175 0.014775780680356615 0.026673180186684874 -0.037237999900055156 -0.04840523224996012 -0.02611193481288097 -0.07350082881998851 -0.029056607165317976
-0.10551124810232848 -0.008929342603169051 0.34887069505285817 -0.001686657425243007 -0.06947670041896407 0.013869271530142932 -0.01938788601573512 -0.020243361750565285
-0.027731111067129877 -0.030058444765650987 0.09217467455924694 -0.012761829851299207 -0.03100165698066271 0.10601234048829622 -0.15238495635891788 0.0954088753393012
-0.06166952145793974 -0.011559138085021372 -0.0533339526719685 -0.038151432469487497 -0.06468550084472711 -0.028578218666370434 0.33255701228761725 0.005501178173296011
-0.07889660850721072 -0.0012716393127638105 -0.04306655271870574 -0.01594275456540304 -0.03672499532329728 0.2143011543419657 -0.011460752725299827 0.0783651295427587
-0.023143142454385056 -0.02461410871331138 -0.14920063075597859 0.011509124662827781 0.0038510408860952814 -0.002355404906899607 0.0003945096907756123 0.17541712507596743
0.018776384480694294 0.05719738262789447 -0.010582465930744618 -0.05620145544991718 -0.12349204292286924 -0.06300572104575218 -0.005314822671929598 -0.0030285532888756884
-0.006346881452441852 -0.0060968950986305635 -0.09405460792362151 -0.004745974389643334 -0.0026752399406286373 -0.04411583793407477 -0.03215055626895505 0.19849447520639232
0.06784043029012474 0.0104444769265108 0.013994775943723635 -0.06597943497668979 -0.06630408185127949 -0.27531311251737045 0.20537406500071131 0.02410950127283844
0.07980797373332423 0.020457258591401555 -0.01175121253310631 -0.010275358584390628 -0.013151153836756626 -0.015839689128688297 0.14250531028942148 -0.01193712701901528
